model/model_case/topic_50000_0921_model/topic_embeddings.safetensors (safetensors, 30808 bytes, 1 tensors)

topic_embeddings f4 [10, 768]
-0.45618036 -0.1371845 1.0156088 -0.1645114 0.42520943 -0.1228455 0.37387007 -0.20342109
-0.4250677 0.2022662 -0.025897024 -0.0066595715 -0.4951965 0.034523647 -0.3219843 0.23962541
-0.056551937 -0.076589726 -0.2450467 -0.67288005 -0.07395953 -0.19811033 0.60256314 0.27326185
0.80610037 -0.15971707 0.31734905 0.08389643 1.0641313 0.6185008 0.6880828 -0.10146213
0.10160666 -0.2248251 0.372518 0.47924674 -0.791891 0.1296924 0.04590272 0.2391748
0.65915793 -0.09197152 0.032933246 0.17744055 -0.12846799 0.22542761 -0.9303407 -0.10032302
-0.7446513 0.09868421 -0.35742366 0.40988863 0.07379036 0.24662302 -0.50320494 0.61759824
0.092260405 -0.38340366 -0.025668213 0.16449913 -0.29996562 -0.052762635 0.19033295 0.6479971
-0.25674042 -0.43695614 0.4047119 -0.5245555 -0.46575123 -0.19980857 0.5790418 -0.03617729
0.4107666 0.2074248 -0.033034027 -0.1664708 0.19247913 -0.1488084 0.30477458 0.52259713
0.016086126 -0.18682063 0.2989807 0.2095614 0.17363344 0.10103056 0.0896282 -0.110547386
-0.73312414 0.25897714 -0.11660413 -0.26655787 -0.055843733 -0.34620804 0.232367 0.44976035
0.25522122 -0.53481853 -0.33228707 0.18264 -0.4543799 0.473441 0.0995564 0.2425734
-0.13747768 -0.63973373 -0.055993438 -0.12160132 -0.202017 0.5196032 -0.17352337 -0.59195876
0.4515075 -0.3595962 0.50368685 -0.5433966 -0.6744679 0.49793166 0.12872767 0.82131046
0.2770309 -0.1536511 -0.72349966 0.09643114 0.38273877 -0.31097257 -0.0747579 -0.13690716
-0.2928276 0.8153629 0.45002353 0.23565434 -0.11206409 -0.53038603 -0.32557786 -0.38661835
-0.23846236 0.20733105 0.19831121 0.3730149 -0.47250375 -0.28508666 0.23431732 -0.21406502
0.3074801 -0.44921377 -0.65492743 0.16446345 -0.54926986 -0.11582138 -0.32077137 -0.18001048
-0.43413246 0.006673027 -0.71463954 0.0992197 -0.31343994 0.9481793 0.11539474 0.23838757
-0.103958584 0.22423066 -0.52768874 0.11103975 -0.16349313 0.48717785 0.35751382 0.5507519
-0.1795514 -0.30149537 0.46236163 -0.85805845 0.04992023 0.047344476 -0.18406676 0.3839423
0.32324153 0.11150645 -0.29053092 -0.030051993 0.09892029 0.00173128 0.5651697 -0.97531056
0.21578419 0.055365454 0.10799575 -0.16720466 0.5544923 -0.7133534 0.019058997 -0.4645733
0.6794666 -0.12920697 0.73061967 0.58676636 -0.4203676 -0.3346129 -0.1702642 0.68927443
0.6110179 0.2629334 0.41190177 -0.3473754 0.050976984 -0.029903432 -0.17254132 0.45072988
-0.41287798 0.030079432 -0.14882773 -0.52149874 0.09623836 0.3290567 -0.25932595 -0.8613612
0.28171322 0.061712127 0.4180088 -0.091079414 -0.111381635 -0.0463031 -0.17469084 0.5181491
-0.52813417 0.14939064 0.44233465 -0.024671225 0.37522042 -0.24763474 -0.06094237 -0.34106007
-0.16251867 -0.63101584 0.22174619 0.2687893 0.17835268 0.021943182 0.11650376 0.08746953
-0.30418098 0.21925786 -0.08448335 -0.21040827 -0.16658477 -0.9997997 -0.27931526 0.049805414
0.12585405 -0.29951215 -0.69487524 0.59507596 0.41544482 -0.2499605 -0.22625045 -0.1886332
00000000: 7990 e9be 187a 0cbe 78ff 813f ad75 28be
00000010: 0db5 d93e 6c96 fbbd e66b bf3e 9e4d 50be
00000020: 79a2 d9be df1e 4f3e ff25 d4bc 8938 dabb
00000030: 658a fdbe ab68 0d3d 20db a4be 5d60 753e
00000040: 01a3 67bd 13db 9cbd 86ed 7abe de41 2cbf
00000050: 1878 97bd 6fdd 4abe 9441 1a3f fae8 8b3e
00000060: 985c 4e3f df8c 23be 937b a23e e4d1 ab3d
00000070: 7435 883f 1256 1e3f 3226 303f 61cb cfbd
00000080: 2717 d03d 8d38 66be aeba be3e d45f f53e
00000090: 5eb9 4abf 16ce 043e 7e04 3c3d 3dea 743e
000000a0: 93be 283f 905b bcbd 03e5 063d fab2 353e
000000b0: 1d8d 03be 7fd6 663e cf2a 6ebf 2876 cdbd
000000c0: 78a1 3ebf f21a ca3d 3c00 b7be ecdc d13e
000000d0: 661f 973d bf8a 7c3e 0ad2 00bf eb1a 1e3f
000000e0: 06f3 bc3d 7c4d c4be 2546 d2bc 7672 283e
000000f0: 1895 99be a21d 58bd a4e6 423e 23e3 253f
00000100: 7b73 83be b7b8 dfbe 6636 cf3e 4549 06bf
00000110: f276 eebe 9e9a 4cbe 153c 143f a32e 14bd
00000120: 0050 d23e 2b67 543e b04e 07bd 5277 2abe
00000130: 4019 453e 3b61 18be 6a0b 9c3e edc8 053f
00000140: 0dc7 833c e84d 3fbe 0014 993e 4397 563e
00000150: f7cc 313e 1ce9 ce3d fd8e b73d ab66 e2bd
00000160: 06ae 3bbf a798 843e 25ce eebd 467a 88be
00000170: 66bc 64bd 2e42 b1be 9df1 6d3e fd46 e63e
00000180: 5bac 823e dee9 08bf 8821 aabe fb05 3b3e
00000190: 7ba4 e8be dc66 f23e 3ae4 cb3d 2965 783e
000001a0: f3c6 0cbe 97c5 23bf 6059 65bd 1d0a f9bd
000001b0: 8bdd 4ebe b704 053f 1cb0 31be 9c8a 17bf
000001c0: fe2b e73e fe1c b8be 9ff1 003f 0a1c 0bbf
000001d0: eea9 2cbf e6f0 fe3e 30d1 033e 6741 523f
000001e0: fed6 8d3e b756 1dbe 4637 39bf b17d c53d
000001f0: 56f6 c33e cc37 9fbe ab1a 99bd 6431 0cbe
00000200: 80ed 95be 9fbb 503f 7c69 e63e 5f4f 713e
00000210: dc81 e5bd 61c7 07bf 24b2 a6be d7f2 c5be
00000220: 7a2f 74be 974e 543e 1812 4b3e cffb be3e
00000230: 03ec f1be e1f6 91be e1f0 6f3e dc33 5bbe
00000240: 086e 9d3e 59ff e5be 53a9 27bf 1b69 283e
00000250: f39c 0cbf c233 edbd 253c a4be ab54 38be
00000260: 9c46 debe 68a9 da3b 9ef2 36bf b333 cb3d
00000270: 337b a0be e1bb 723f 1454 ec3d df1b 743e
00000280: 3de8 d4bd b99c 653e 9c16 07bf cf68 e33d
00000290: be6a 27be 606f f93e 0d0c b73e 14fe 0c3f
000002a0: 52dc 37be 9a5d 9abe aaba ec3e b8a9 5bbf
000002b0: 2879 4c3d 48ec 413d ff7b 3cbe 1694 c43e
000002c0: ea7f a53e 7e5d e43d 78c0 94be 992f f6bc
000002d0: b996 ca3d 1eec e23a f6ae 103f f4ad 79bf
000002e0: 88f6 5c3e e3c6 623d e02c dd3d b337 2bbe
000002f0: 35f3 0d3f 549e 36bf 9d21 9c3c 8ddc edbe
00000300: 86f1 2d3f d54e 04be e409 3b3f 5236 163f
00000310: 6c3a d7be 6252 abbe bd59 2ebe 4a74 303f
00000320: ab6b 1c3f 359f 863e cae4 d23e 30db b1be
00000330: 3ecd 503d 0bf8 f4bc acae 30be 11c6 e63e
00000340: be64 d3be 2469 f63c 4c66 18be f180 05bf
00000350: 9e18 c53d 1f7a a83e 5fc6 84be 2b82 5cbf
00000360: b73c 903e dbc5 7c3d 4005 d63e d887 babd
00000370: 0e1c e4bd 52a8 3dbd 28e2 32be 6ba5 043f
00000380: cd33 07bf dcf9 183e b079 e23e 4f1b cabc
00000390: e41c c03e f693 7dbe b59e 79bd 6d9f aebe
000003a0: 4b6b 26be 418a 21bf 6f11 633e c09e 893e
000003b0: 16a2 363e 30c2 b33c 8699 ee3d 3a23 b33d
000003c0: 9cbd 9bbe 2285 603e 9b05 adbd 4475 57be
000003d0: 3395 2abe e0f2 7fbf 6902 8fbe c300 4c3d
000003e0: e2df 003e a859 99be 58e3 31bf e656 183f
000003f0: 2fb5 d43e a5f5 7fbe 33ae 67be 1029 41be
