model/model_case/topic_samplelist_0921_model/topic_embeddings.safetensors (safetensors, 61528 bytes, 1 tensors)

topic_embeddings f4 [20, 768]
00000000: 760f e1be 424c 1abe 1f2d 813f 285a 20be
00000010: 89d7 da3e 5db7 fcbd ca45 b93e 05f7 4cbe
00000020: 5f8d dcbe ba7c 573e e9c9 bfbc 288c a4bc
00000030: 1b81 febe 9f23 053d fa4b a2be d0d1 713e
00000040: 34d2 55bd 60d3 8ebd 7cd1 85be b84c 2fbf
00000050: 2b35 9bbd 03d3 4ebe 399a 193f c456 903e
00000060: 7bbe 4a3f fd1e 29be 2f8c a23e 0bba bf3d
00000070: 618c 8a3f c96f 1f3f aa57 2f3f d327 e7bd
00000080: 8152 c63d e4d4 5cbe cdb9 c43e a7ff f43e
00000090: ad77 4dbf dc10 033e 3068 483d c716 803e
000000a0: 52c5 273f f5bc d4bd 3491 3a3d 56b1 383e
000000b0: 6d77 03be eca8 5f3e 37ea 6abf c90d c6bd
000000c0: ed82 3fbf b62f dc3d b241 b6be a20d d83e
000000d0: ea87 9e3d e67d 843e a1e3 03bf 21a1 213f
000000e0: c368 d13d bd77 c6be 2bb6 28bd 686c 353e
000000f0: e3e2 95be ab45 82bd 39b8 3f3e e852 283f
00000100: 8b07 78be b2e4 debe 2011 ce3e 5727 05bf
00000110: 5b12 efbe 7f39 48be edc8 123f 1f73 c0bc
00000120: b8a9 cd3e 6911 533e 40f0 2ebd 93f2 2bbe
00000130: 8220 473e bc6c 17be 4f3f 9e3e c31e 043f
00000140: fd64 bb3c 6c23 40be 14df 993e 507d 5a3e
00000150: 5eaf 313e 95c1 ce3d bab8 b03d 1446 f8bd
00000160: 520c 3bbf 673a 883e 07af f3bd 627a 89be
00000170: 9e35 74bd b794 b2be 5029 6e3e a2cf e63e
00000180: a90b 7c3e 1b6b 08bf 1551 abbe 2fcb 3a3e
00000190: 3088 e2be dea8 f53e 8d9e ce3d e9c0 853e
000001a0: 9c7f 0dbe bc32 24bf 9641 58bd a09a 05be
000001b0: 1f85 52be c7af 073f aaf6 33be 88df 1bbf
000001c0: 21eb ea3e 26a2 c0be 9120 fa3e 2dc6 0ebf
000001d0: 5ffe 2bbf c07b fc3e 561b 063e 4dfe 523f
000001e0: 2ebe 843e c01d 23be 7f98 3cbf 86b6 c83d
000001f0: 575b c33e fe40 9dbe aa43 7abd 0f07 08be
00000200: f5c6 92be 08e6 513f 4fdf e53e 8c02 723e
00000210: 2666 e5bd 9b60 07bf 7242 a2be ffa9 cabe
00000220: 6bf1 81be 4fb2 4e3e 1006 4c3e f914 bf3e
00000230: 77a9 eabe 2df6 95be 9f1c 693e b19f 5bbe
00000240: b6b3 9a3e 0a96 e5be 777f 27bf 1e51 263e
00000250: 1b1e 0ebf b4bc e9bd c1c2 a5be 099e 4bbe
00000260: fd6e dbbe 5f70 803b 3db8 38bf 1387 b03d
00000270: ac05 a3be 07e8 723f baa9 f63d 8d5e 793e
00000280: dbcd c5bd 3cae 5b3e 76f8 08bf 6191 f03d
00000290: 6468 20be 78d7 f83e e7dd bc3e d676 0c3f
000002a0: 1915 32be 4dc1 9ebe 768e e93e 5e2f 5ebf
000002b0: 0a02 313d 192a 443d a8a8 27be fc07 c73e
000002c0: a478 a23e 121b e13d 5657 99be c44a 08bd
000002d0: 3a42 c53d f599 d8bb a650 103f 092f 7cbf
000002e0: 9f4e 683e 94e7 823d ed74 cc3d 6d19 26be
000002f0: fa73 0e3f 0b3d 37bf 54bc 11bb 1103 f5be
00000300: 1a16 2c3f 670e ffbd f7b8 3c3f 4d86 103f
00000310: dd1e dbbe 801b abbe d556 27be 813f 323f
00000320: 16bd 1b3f 6d62 813e 21bd d73e df9f b4be
00000330: 466e 2a3d ce77 22bd 3407 2fbe 215f e83e
00000340: 918e d2be ebac 063d 4549 23be a8ea 04bf
00000350: ac9b b63d ccbf af3e 181c 85be c37c 5ebf
00000360: 7e50 913e 0a07 653d c93b d53e 5ae7 bfbd
00000370: 2f31 ecbd 8942 1fbd 95b2 32be fa36 043f
00000380: 0a26 07bf ff2c 223e 0e2f de3e e135 dfbc
00000390: c96f c43e 9a48 7cbe 82a3 82bd 5607 aebe
000003a0: ee8f 20be a02d 21bf 58dc 673e b7ba 893e
000003b0: 12fb 2c3e a5b2 b53c 0803 033e 524f b53d
000003c0: e7c3 93be 8083 4e3e 8f0d a9bd 9160 58be
000003d0: 96fb 1dbe 3e30 81bf c7fb 92be b54b 503d
000003e0: 6490 f93d f7e0 97be eb27 2fbf 1df2 193f
000003f0: bb27 d23e 54f2 89be ae48 7dbe 4153 44be
-0.43957108 -0.15068153 1.0091895 -0.15659392 0.42742565 -0.12339661 0.36186057 -0.20016105
-0.43076608 0.21043673 -0.023411708 -0.020086363 -0.49707875 0.032504674 -0.3169859 0.23615193
-0.05220242 -0.0697391 -0.26136386 -0.6847644 -0.075785 -0.20197682 0.6000095 0.28191197
0.791969 -0.16515727 0.31747577 0.09361657 1.082409 0.62279946 0.6849314 -0.11286893
0.09683705 -0.21565586 0.38423005 0.47851297 -0.80260736 0.127994 0.048927486 0.25017378
0.6553546 -0.10387603 0.045548633 0.18036398 -0.12838526 0.21841782 -0.91763633 -0.09670598
-0.7480915 0.10751288 -0.35596997 0.421979 0.07740767 0.25877303 -0.5151921 0.6313649
0.1022506 -0.38763228 -0.041189354 0.17717135 -0.29274663 -0.06360944 0.18722619 0.65751505
-0.24221627 -0.43533856 0.4024744 -0.5201315 -0.46693692 -0.19553183 0.5733784 -0.023492394
0.40168548 0.2061211 -0.04270959 -0.16791753 0.19445994 -0.14787573 0.30907676 0.5160944
0.022875303 -0.18763512 0.30053008 0.21336865 0.17352054 0.100955166 0.08628984 -0.12122741
-0.73065674 0.26607057 -0.11898618 -0.26851183 -0.059621446 -0.34879085 0.23257947 0.45080286
0.24613823 -0.5328843 -0.33460298 0.18241571 -0.44244528 0.47980398 0.10088835 0.2612374
-0.1381821 -0.64139915 -0.052796923 -0.13047266 -0.20558594 0.5300259 -0.17574564 -0.60887957
0.45882514 -0.3762371 0.4885297 -0.5577114 -0.67185014 0.49313164 0.13096365 0.8241928
0.25926346 -0.15929317 -0.7367019 0.098004386 0.38155624 -0.30713648 -0.061099686 -0.13283943
-0.28667417 0.81991625 0.44896933 0.23633784 -0.11201124 -0.52881783 -0.3169132 -0.39582822
-0.253795 0.20185207 0.19924188 0.37320688 -0.45832416 -0.2928938 0.22764824 -0.21447636
0.30215234 -0.44841033 -0.6542887 0.16241881 -0.5551469 -0.114129454 -0.32375148 -0.19884504
-0.42858115 0.0039196457 -0.72156125 0.08619513 -0.31840265 0.94885296 0.120440915 0.24352475
-0.096584044 0.21453184 -0.5350412 0.11746479 -0.15664822 0.4860189 0.36888048 0.5486883
-0.1739086 -0.31006852 0.45616502 -0.86791027 0.043214835 0.04789171 -0.16372931 0.3887328
0.31732666 0.109914914 -0.29949445 -0.033274427 0.09631772 -0.00661015 0.5637306 -0.9850927
0.22686242 0.06391826 0.09983239 -0.16220637 0.55645716 -0.7157752 -0.0022237496 -0.47853902
0.67221224 -0.12453919 0.73719734 0.56454927 -0.42796984 -0.33419418 -0.16341718 0.6962815
0.608354 0.25270405 0.4213648 -0.35278222 0.04160907 -0.039665036 -0.17092592 0.45385078
-0.41124395 0.03287975 -0.15945919 -0.5192056 0.08916411 0.34326017 -0.25997996 -0.8690912
0.28381723 0.055914916 0.41647175 -0.09370299 -0.115328185 -0.038881812 -0.17450936 0.5164639
-0.5279242 0.15837477 0.43395275 -0.027247371 0.38366535 -0.2463707 -0.06378843 -0.33989972
-0.15679905 -0.62960243 0.22642648 0.26900265 0.1689265 0.02217991 0.12794125 0.0885302
-0.288604 0.20167351 -0.08254539 -0.21130587 -0.15428004 -1.0092847 -0.28707716 0.05085345
0.121857435 -0.29663822 -0.68420285 0.6013506 0.41045937 -0.26942694 -0.24734756 -0.19172384
